dataset/camera_calibration_data/azureCam_params_720.npz (npz, 5144 bytes, 5 tensors)

arr_0 f8 []
000000 02 ea 58 c1 7a cd c5 3f
       0.17033323708331244

arr_1 f8 [3, 3]
000000 56 69 a2 65 0e 4f 83 40 00 00 00 00 00 00 00 00
       617.8820297897717 0.0
000010 72 0b 6d 01 cb e5 83 40 00 00 00 00 00 00 00 00
       636.724123813545 0.0
000020 99 43 3a e6 0c 50 83 40 5f 23 a3 63 a8 e3 76 40
       618.0062984992866 366.22861064649436
000030 00 00 00 00 00 00 00 00 00 00 00 00 00 00 00 00
       0.0 0.0
000040 00 00 00 00 00 00 f0 3f
       1.0

arr_2 f8 [1, 5]
000000 05 18 9d 1b 54 a9 b7 3f 90 4a dc a8 39 a1 b3 bf
       0.09242749857102701 -0.07667885181971656
000010 3f 6f f5 3d 2d 43 62 3f 66 12 fc 1e 58 a6 51 bf
       0.002229297984440409 -0.0010772572094889465
000020 63 f3 c0 e1 8a fd a0 3f
       0.033184375818086996

arr_3 f8 [79, 3, 1]
000000 61 6e b6 ee 31 f4 c7 3f 9b 78 58 f4 ed de d6 bf
       0.18713974147691473 -0.3573565374553113
000010 70 49 76 24 f6 f3 fb bf 90 b9 72 b6 c8 13 b3 bf
       -1.7470609115885871 -0.07452063040066137
000020 05 e0 3c 4e b6 69 d3 3f fe f5 ad 1d 7c 05 fd bf
       0.30332715645226954 -1.8138390693051174
000030 a3 94 87 33 e6 9d c7 bf 3f 2c b2 1c b2 f5 d7 3f
       -0.18450620189756703 0.37437107851355117
000040 40 43 b4 1d 80 a4 fd bf d4 28 3e 4d a9 bf c9 3f
       -1.8526612434690861 0.20116153976079565
000050 5f 59 9f aa b7 5d aa bf 36 2c ca b1 e6 ae f6 bf
       -0.05149625737947149 -1.4177004761611562
000060 bb 52 32 6a c7 74 dd 3f e4 2a 6a 37 57 df cc bf
       0.46025262232550873 -0.22556581693455435
000070 27 6f 5a 0b 85 dc ea bf a8 bd c8 2d 84 4e d8 3f
       -0.839418909239133 0.3797922560797482
000080 a8 39 49 94 93 d7 d9 bf 2e c6 b2 52 3e 45 e8 bf
       -0.40378274422701077 -0.7584525695039639
000090 e6 c9 2b ff 67 21 d3 bf 4e a7 40 42 fa 89 d9 3f
       -0.2989139549164562 0.3990464827535235
0000a0 80 9b f2 e1 57 5c 00 c0 ff 24 2e dc 88 11 b1 3f
       -2.0450894977724943 0.06667380691046175
0000b0 d5 be a9 ed 96 5e d6 3f b8 08 b5 47 38 45 fe bf
       0.3495232888153457 -1.8918993760167222
0000c0 e7 40 a4 6f ed 96 d6 3f 68 60 37 a2 9c a1 ca 3f
       0.3529618826151037 0.2080570022651529
0000d0 c5 2e f6 9a ba f9 f2 bf 6c 9d 52 3f a8 3b ab 3f
       -1.1859689763249872 0.05318952343923908
0000e0 03 d3 2c 81 bc e3 d8 bf 0a 8e b1 d4 f1 89 f6 bf
       -0.38889992346530294 -1.4086778934805602
0000f0 15 6c ad 32 2b 44 d8 bf c5 30 a6 e3 f1 a3 d6 3f
       -0.37916068982093637 0.35375640136113545
000100 18 ab ed 67 07 e4 f9 bf 1c c6 36 bd 75 d3 b9 3f
       -1.618171125383645 0.10088287229043441
000110 c3 c7 d0 a2 0d d8 bd bf 72 97 3f 84 f1 37 fb bf
       -0.11657796120633095 -1.7011580625489526
000120 e9 04 b2 71 a0 3b ae 3f d8 8f 51 97 43 7f de 3f
       0.0590486658848109 0.476517579814979
000130 16 ea 09 69 48 58 03 c0 16 cf 3d f1 a6 b3 cc 3f
       -2.418106861701072 0.22423254756324046
000140 7f 6b 34 6a 1f ec cf bf 78 ac 4f 13 c0 2e f6 bf
       -0.24939339338092378 -1.3864136461586707
000150 54 d2 a4 02 e9 06 c5 bf ed 31 4c 84 91 ee ce bf
       -0.16427338246434664 -0.24165553054662273
000160 be e6 36 1b 27 c0 f8 bf 22 e9 52 3c ce 79 b6 bf
       -1.5469122946800975 -0.08779610607863167
000170 4f e8 b5 7a 71 72 e1 3f 17 ae 2f 0c d8 d0 06 c0
       0.5452201267901361 -2.8519745780993264
000180 a4 3d 24 92 30 8f 74 3f 40 8e 46 cd a0 f5 96 bf
       0.005019368867820093 -0.02242137196448213
000190 5d be cc 8a 93 5e f0 bf c8 d4 07 af b0 6e bd 3f
       -1.0230899259439845 0.11497024796684052
0001a0 fd 9e c2 20 5f c7 d5 3f 21 37 cd a1 c3 b3 f9 bf
       0.3402936763691143 -1.6063877411247136
0001b0 0c e6 35 33 b9 02 c0 bf 5c 62 d6 43 2b 79 d3 3f
       -0.12508311272158357 0.3042705690836891
0001c0 5d 19 bb fd e5 b7 fa bf ad bc 07 40 56 52 b4 bf
       -1.6698970710145524 -0.07938136161077365
0001d0 96 35 c8 e7 9b 40 d4 3f ad c3 91 32 53 e2 03 c0
       0.31644342074363274 -2.4855102492078545
0001e0 93 63 2b 86 f6 9b ce 3f ef 4f 41 a1 6f 0f ce bf
       0.23913461257214105 -0.23484607099328467
0001f0 b6 5e b8 b8 3a 47 f5 bf db 1a f4 d5 3c 50 9d bf
       -1.3298899856217026 -0.028626394804656435
000200 48 8e 4a f5 cd a3 d2 bf 5c 1b 98 60 c3 dd f5 bf
       -0.29124783472272897 -1.3666414044580142
000210 70 67 0d 60 d0 72 b8 bf e0 bc d3 3a 4f 7c d6 3f
       -0.09550192208317099 0.35133724922975595
000220 6a 6f f2 5f b0 a9 03 c0 7c 53 46 57 df 24 d8 bf
       -2.457855939470325 -0.37725051424904854
000230 24 0c 05 74 8c 25 d3 bf 0e 12 07 f3 7b ba fe bf
       -0.2991667874341053 -1.9205283635393502
000240 26 10 0f 5b 40 65 a7 bf 11 33 c9 f4 5e 36 e3 bf
       -0.045694361796933244 -0.6003870755172064
000250 9d 9c dc 90 7d cf 06 40 52 68 ff 26 b3 d0 c6 3f
       2.851313716633355 0.17824401287254205
000260 b9 52 b2 80 8e 39 c4 bf 21 df 07 37 9a eb 04 c0
       -0.15800648960125388 -2.6150402354504796
000270 cd 8b 41 3a f1 3a 7f 3f 7f a0 ad ab 38 2c df bf
       0.007624571128050439 -0.48707405820324107
000280 df 7e a6 1b da 43 f9 bf 6a 4a 38 ce 81 51 d3 bf
       -1.5790654258816443 -0.3018497957101888
000290 df b5 0d 4f c1 17 c1 3f 94 7e 02 11 fa 37 f7 bf
       0.13353744850193913 -1.4511662163203356
0002a0 0a 09 6a 4a d4 c2 db bf 8f 20 81 33 72 31 ca bf
       -0.43376643435489426 -0.20463397517074042
0002b0 8d f9 1e 98 6c 2e fc bf 63 1d 02 d9 a2 ed ba 3f
       -1.76133403227104 0.10518853948643918
0002c0 e3 24 b8 60 89 2e d0 bf bb f6 6d 5e e3 31 f2 bf
       -0.25284037060971637 -1.137179726472296
0002d0 f0 de b8 12 5b 44 d9 bf f6 7a 30 b4 73 60 d8 bf
       -0.3947971041520608 -0.3808869609510305
0002e0 80 a5 86 2a 99 de 00 c0 ce e4 42 ed 32 f4 c7 3f
       -2.108690578683934 0.1871398600103817
0002f0 13 4e ff ac 74 44 e5 3f b3 0b 5a 42 0a 22 05 c0
       0.6646064165929054 -2.6416211303453223
000300 1f a6 58 74 df 6b d3 3f 33 54 23 d4 a0 30 ce 3f
       0.30345903741781116 0.23585901602078393
000310 6d 2b b5 db 01 4e 00 c0 46 b9 b0 06 1d 91 bc 3f
       -2.038089481798514 0.11158925450647414
000320 d2 0f 87 4b 25 b7 aa bf ed 42 d7 34 93 2a 03 c0
       -0.05217854067771523 -2.3957885864441466
000330 60 61 b0 fe 54 1a e3 3f 41 e1 a8 27 5a 94 d4 bf
       0.5969643568414931 -0.32155469773308104
000340 61 82 ef 0e d2 e0 ee bf e4 d1 df 47 c3 e8 c5 3f
       -0.9649439136229142 0.1711658574055398
000350 ea 4e 2a 77 38 f9 b5 bf 0a e2 75 ca cd 7c f5 bf
       -0.08583405408199565 -1.3429696949589265
000360 a4 e9 b1 aa 9d 75 ce 3f f5 0c e0 86 39 e9 bc bf
       0.23796435198512456 -0.11293372671939379
000370 b0 4a d4 f5 9e 68 fb bf 98 1c 5a eb 73 5b cd bf
       -1.7130422213273668 -0.22935341827198807
000380 42 69 a2 11 7b 03 de bf 04 c7 99 eb ae d9 f9 bf
       -0.46896244737731163 -1.6156453326370306
000390 00 b1 76 fc 6f 20 d3 3f 61 5e cc 30 91 1c e0 bf
       0.2988548245873659 -0.5034872010318844
0003a0 3f 80 78 29 ca e4 f8 bf fb 70 14 1a b5 84 e3 3f
       -1.555856859202336 0.6099496373531389
0003b0 45 69 fe e3 96 3b ca bf 90 f4 a3 fc 53 67 f6 bf
       -0.20494352467069113 -1.4002265805022809
0003c0 2f 43 71 8c 0f ea db 3f 6f 9e 68 79 1e c0 d1 3f
       0.4361609336383933 0.27735101562800585
0003d0 f1 4b 07 9b 35 c3 f9 bf 99 bd b3 fa a3 61 c4 3f
       -1.610158544139946 0.15922975293458988
0003e0 f9 6e c5 76 6e 7a d5 3f 7f 65 49 77 9a e8 f4 bf
       0.3355976257205238 -1.3067879352223313
0003f0 61 64 9c 8d 3d f5 bf 3f 6b a4 35 4c d2 bc c7 3f
       0.12483582217500235 0.1854498741261382
000400 89 91 79 89 d5 08 dd bf 2d 17 35 a7 d2 2f d6 bf
       -0.45366419244080497 -0.3466688759693735
000410 f0 b3 fb 78 45 e5 d7 3f 73 28 48 73 2f 88 f7 bf
       0.3733686143376067 -1.4707483771512926
000420 ef 1f cb d7 71 bc b0 bf b2 8c 60 3a c1 03 9b bf
       -0.06537543791193888 -0.026381510913904456
000430 e4 0c d2 c2 0c 97 ff bf 81 d6 36 06 1d 45 c6 3f
       -1.9743774042297497 0.17398417285373927
000440 fd 33 01 7e c5 b8 b1 3f c0 2b 76 48 cb 8e fa bf
       0.06922563864027605 -1.6598618345767449
000450 69 9d b0 be fe 7f d6 bf bf 82 76 9b 5c ea b4 3f
       -0.3515622007566522 0.08170107646447898
000460 f3 d6 b0 e0 c9 2c f3 bf d9 a1 8c 87 d0 4d 75 3f
       -1.19843471307598 0.005201162880247933
000470 96 9a 15 54 c6 56 bd bf e0 e7 a7 ba 53 06 00 c0
       -0.11460532715646318 -2.0030893881312153
000480 0b d8 1f 97 c2 e7 a2 bf 0b de 2a 28 0b fb cd bf
       -0.036924439380456496 -0.23422374211598682
000490 96 20 55 96 13 b9 fa bf 14 82 63 a5 7e f2 c7 bf
       -1.6701846954693216 -0.18708785129185002
0004a0 42 1e d7 8e 5a ca 86 3f 20 91 1b 8b 1a 79 02 c0
       0.01112814663328188 -2.3091326587474583
0004b0 f4 df bb 61 d4 71 d5 3f 06 76 7e 85 89 bb dd bf
       0.33507260841679387 -0.4645713618900519
0004c0 d2 70 47 37 a5 4c 03 c0 41 9a 46 0c fa 05 e1 3f
       -2.412424499385545 0.5319795837174938
0004d0 db 40 a8 b8 47 b0 a6 bf a5 0e 8f 73 8f f6 fe bf
       -0.044313660899321504 -1.9351953996673867
0004e0 c0 93 52 aa a2 87 8d 3f 2f 37 0e 4a 94 81 dc 3f
       0.014418860266525502 0.44540889007554346
0004f0 e5 9a 7d 26 3e 51 01 c0 d7 e7 28 fb 81 31 c3 bf
       -2.1646693236428853 -0.14994835628186706
000500 bb 01 42 47 0a 4f c5 3f dc 82 64 43 62 dc f3 bf
       0.1664746139467875 -1.2413046486400878
000510 89 61 51 e2 bb 26 d4 3f 84 7f 35 42 c1 17 a6 bf
       0.3148641309867562 -0.04314998563017894
000520 9c 93 ab 63 a2 0d f4 bf 92 a8 90 9d ef 15 d8 3f
       -1.2533286946647655 0.37633886706556396
000530 b2 30 a5 ca ea 3c a8 3f bd 6f 95 3c 89 e3 f9 bf
       0.04733976100632854 -1.6180508009483525
000540 67 fb 32 c1 59 d4 a6 bf 6f c1 7b 0a b7 e6 e4 3f
       -0.044588856538658565 0.6531634526018432
000550 e6 56 e6 0d c8 ed 05 c0 c7 ce e3 cb ee f3 c7 3f
       -2.7411042295378705 0.18713173823890925
000560 59 57 f1 3a 30 a6 c9 bf 7a 3e a0 b7 07 38 ff bf
       -0.2003841674620002 -1.9511792347801973
000570 f1 eb 3f 29 9d 5d e3 3f 62 b6 78 a8 09 32 93 bf
       0.6051774793298802 -0.018745566280065858
000580 d1 2a 59 e3 5a 4a fd bf 0f bf 9a 08 6e 53 d9 3f
       -1.8306530838769286 0.3957171520259956
000590 b8 48 00 ac 00 c4 c2 bf b6 01 b1 76 9d cc f4 bf
       -0.14660652540675811 -1.2999548565277173
0005a0 57 81 67 20 03 68 cc bf ee ab b3 b8 62 fe df bf
       -0.22192420084230477 -0.49990146672524716
0005b0 d0 de cf 31 33 b4 00 c0 b7 8d 91 09 cd 0b d1 bf
       -2.0879882709085464 -0.2663452714388898
0005c0 5e 53 08 c6 84 57 e6 3f 2e 19 c2 ac 4f a5 03 c0
       0.6981834285566995 -2.4557183739408606
0005d0 f8 46 f7 2b 1f 9c d0 3f 1a e4 c3 4d af 59 c2 3f
       0.25952891629741215 0.1433619622910392
0005e0 55 90 ea 7f 3c fb 02 c0 0d d5 5c b7 4d 1c a3 bf
       -2.3726739877184095 -0.03732531417191796
0005f0 ec 0f 5d d6 41 21 dc bf 41 cb 5d f7 e5 53 03 c0
       -0.43952985700548086 -2.415965969610085
000600 93 89 78 41 c1 e3 b8 bf 04 fe 7f 78 3e e1 d0 3f
       -0.09722526405724911 0.26374780433249634
000610 3c 10 c4 c4 2f 8a 02 c0 1d 85 d6 01 c7 0c d3 bf
       -2.3174739239057356 -0.2976548688839829
000620 48 7d cb 90 b7 eb d1 bf 8b ad 05 40 45 01 f5 bf
       -0.2800120271694664 -1.3128101826540355
000630 b8 99 e5 40 10 55 c1 3f 0d eb b0 56 c1 1e d8 3f
       0.135408431709221 0.37687715021063256
000640 c2 38 0a 7f 43 b1 00 c0 d0 0e 0d c9 e2 4a d6 3f
       -2.086554520129625 0.3483206714047187
000650 3d 50 2d 6f dc b2 93 bf 87 04 aa 0c 23 8c f9 bf
       -0.01923698834009734 -1.5967131132786407
000660 cc 95 7e 5f b1 e7 93 3f ab a2 70 43 2b 6a dd 3f
       0.019438525632400602 0.45960504136977914
000670 64 b4 3a b3 9d 0a 02 c0 8c ee d8 a1 bd c9 cd bf
       -2.2551836015978086 -0.23271913912491404
000680 7e 63 fb 6c 9d ec ce bf bf 0d 15 b8 b7 7b f5 bf
       -0.24159591504465178 -1.3427045050346889
000690 a3 62 39 5a e8 df e1 3f 58 27 17 02 ff 5d da bf
       0.5585824739637996 -0.41198706821579867
0006a0 15 bd 08 a4 1f e4 f5 bf fe ad 84 41 66 89 9a bf
       -1.368194237478581 -0.025914762257498218
0006b0 d6 04 18 4f e4 81 e4 bf 01 6f 0d 29 6d cb 01 c0
       -0.6408559365082975 -2.2243293006157505
0006c0 2c 5d 83 66 b5 54 bc bf 83 57 ab 36 8c ee c2 bf
       -0.11066755059015482 -0.14790489835166562
0006d0 c8 28 7f dc 88 5c ff bf 8f 64 aa 9c 28 85 dd bf
       -1.9600914586213083 -0.4612523584306211
0006e0 37 ed e3 8f d2 71 d6 bf af e7 ae bf 52 83 fe bf
       -0.3506971745661817 -1.9070613372445953
0006f0 8b b9 12 8e 2b 23 d4 bf 96 6d b4 01 23 35 b3 3f
       -0.3146466147835773 0.07502955237980866
000700 13 e2 d7 ad b5 b2 00 c0 9a b7 4a 34 9c 26 87 3f
       -2.0872605878360075 0.01130411181051354
000710 ab 60 bb ad 6a 8a d7 3f 6b 71 70 39 30 08 f9 bf
       0.36782328573236595 -1.564499115344996
000720 f0 5a 61 63 4e c0 ad 3f 39 14 9c 18 e4 43 b7 3f
       0.05810780490053513 0.09087968445608476
000730 1f 2b 07 f1 92 54 fb bf 7f c8 87 62 20 11 ce 3f
       -1.7081479468494718 0.23489765940718496
000740 4f 07 4e 9b 35 f9 d3 3f 23 bd 59 2d 39 0f fb bf
       0.31208553472980766 -1.6912166377549702
000750 7a a6 6f 8b 38 97 ac 3f 68 b1 70 28 66 3f e5 3f
       0.05584122373677487 0.6639891424033921
000760 e4 5d 36 38 ab e0 00 c0
       -2.1097015754310053

arr_4 f8 [79, 3, 1]
000000 02 37 38 73 d8 8f 20 c0 58 b8 f3 2f 8a 81 0c 40
       -8.280948258030097 3.5632518526318044
000010 52 75 c0 ba e9 7e 27 40 24 4e a1 af 28 95 01 40
       11.747876964562838 2.1978315087415172
000020 56 cb 41 76 2e 4b 14 40 dc 61 0e 98 ee 9e 39 40
       5.073419425740971 25.620828155051512
000030 fe 21 d5 42 eb e8 03 c0 40 31 3f 07 f6 e0 02 40
       -2.4887299748700107 2.3598442617568764
000040 1d d3 a1 2d b6 09 33 40 ab 9b 7a 41 65 bd 09 c0
       19.03793606949613 -3.2174782863180176
000050 e4 d9 14 9e c1 dc b3 3f af 52 30 2f c1 6e 32 40
       0.07758722409639734 18.432635258958438
000060 2c 39 3f e7 b4 ea 11 c0 50 fb fd 05 c8 88 e7 bf
       -4.47920571635613 -0.7354469410928264
000070 ba e3 58 9a 18 3e 29 40 d3 f7 a7 4e 9c d1 00 c0
       12.621281455374504 -2.1023489136705193
000080 bb c7 e4 4c b1 9c 07 c0 d8 2d 03 15 a0 21 29 40
       -2.9515100486105132 12.565674454343863
000090 44 b4 60 2d ab e5 14 c0 51 9c fb 69 e5 9b 0e 40
       -5.224285801913599 3.8261211662207093
0000a0 28 d1 4d b4 01 f4 32 40 78 08 ac 10 62 fb 16 c0
       18.953151005743308 -5.745491276264254
0000b0 25 d1 2e 98 a6 fd 15 40 89 48 b7 6a ea ca 38 40
       5.497705819947702 24.79263941740695
0000c0 28 c5 3c 49 f8 1b 15 c0 a7 dc e9 cc 46 6e c7 3f
       -5.27731432374393 0.18305287366431353
0000d0 74 f2 06 03 7f b3 33 40 d3 ba 0e 60 fd e1 22 c0
       19.701156796642366 -9.441386224554128
0000e0 d5 ac 2e c6 1e fd dd 3f 6c 4c b5 d0 88 ea 24 40
       0.46857423166029594 10.458075067645233
0000f0 b6 46 cd 0e 50 10 18 c0 a2 7f d9 e6 78 bf d1 3f
       -6.015930396346155 0.2773115400686895
000100 5b f8 2f 76 95 1b 36 40 23 e3 d1 8c 4a 11 15 c0
       22.107749354087314 -5.266885948477269
000110 1b 62 0a 44 82 f0 f8 3f ff 6f 47 08 85 c9 29 40
       1.558717981131969 12.893593081207653
000120 a3 f6 c2 f5 52 e5 17 c0 17 a9 31 a4 dd 28 0c 40
       -5.973949279808639 3.5199539973883804
000130 c2 65 ac 99 01 6e 36 40 fa 17 a2 e3 ef ca ff bf
       22.429711918439132 -1.987045182411292
000140 b0 11 36 f3 d5 6b 03 c0 76 73 61 1d e3 3b 32 40
       -2.427654171073492 18.23393424634147
000150 e9 35 19 71 9e a5 1e c0 a1 90 79 24 23 bb f8 bf
       -7.661737219966633 -1.545687811355528
000160 ca 6f f0 1f 99 80 32 40 8e 28 6e 92 94 e2 e1 bf
       18.502336498451577 -0.5589087352721138
000170 f7 14 5e 50 10 8b 04 40 c9 63 46 b8 13 50 39 40
       2.5679022101127162 25.312800900635725
000180 22 12 7f 79 44 88 0f c0 aa f2 74 db 1b 55 fb bf
       -3.9415368549255314 -1.7082785198719344
000190 10 d8 6f e1 de 4c 38 40 ac fe 02 c0 51 5e f0 bf
       24.30027588825766 -1.0230271816689465
0001a0 a7 4d 3b 84 1c 00 0e 40 5a 55 ea 70 c0 c9 3c 40
       3.7500543909643116 28.788092667780212
0001b0 72 55 ce a0 3d 49 12 c0 4c 7f f7 cb ba b0 07 40
       -4.5715241552292 2.9612937865166824
0001c0 ce 50 e8 2a 25 85 37 40 80 fe 56 92 d4 24 15 40
       23.520098382680594 5.285967146453572
0001d0 ad 98 f7 c4 47 38 0c 40 07 22 4f e8 07 b5 34 40
       3.52748063927273 20.707151908225594
0001e0 42 d8 f8 a5 72 14 d0 bf 87 01 d9 cd 80 6c ee bf
       -0.25124803741653434 -0.9507450123274318
0001f0 1a 20 ad 2c 01 c7 35 40 ba 33 d8 5e 02 cb bb 3f
       21.77736167170233 0.10856642547169218
000200 a6 bc 89 ad 52 6b 08 c0 56 2d 50 e4 7f d9 35 40
       -3.0524037892970055 21.84960772473763
000210 a0 d6 59 0e dd 56 27 c0 b3 a6 e8 b1 5c 67 f5 3f
       -11.669655273882483 1.3377348851740123
000220 d6 0f 2a 83 40 c8 36 40 8a b0 6e e4 1b 37 1a c0
       22.782234380501755 -6.553817338233907
000230 3a 36 73 74 d0 e5 0b 40 cd bc 2a b4 d8 81 2b 40
       3.4872140023860796 13.75360644361208
000240 7e f9 4c fd d0 a5 1d 40 48 06 5a 90 7d 71 05 40
       7.411930044005542 2.6804152753327664
000250 a8 6d 0b 0d a4 8a 33 40 ad 60 fd 3f f1 b4 11 40
       19.5415657189275 4.426701545562691
000260 21 f0 80 34 ee 83 12 40 b4 67 70 f8 04 32 2e 40
       4.62883836781478 15.097694171639752
000270 de 01 9e d6 9b cd 18 c0 dd f8 0e 86 f5 18 fc 3f
       -6.200789788621902 1.7560935246142926
000280 03 6f d6 84 73 6e 21 40 a2 c4 41 f7 81 1b 16 c0
       8.71572508924101 -5.526862967862288
000290 1f 72 44 bf ac 79 06 c0 a0 9b fe 44 5b 7e 35 40
       -2.8094115202677723 21.493580162201056
0002a0 aa 04 08 23 83 b4 15 c0 2a c8 9e ec 49 32 0b c0
       -5.42628149734916 -3.3995550619083774
0002b0 ff 29 09 da ff 8b 36 40 39 3b 5f 49 13 72 0d 40
       22.54687273715717 3.6807008487880037
0002c0 eb 0f 46 bd 0e 65 11 c0 67 c8 29 9e 64 73 34 40
       -4.34868903865934 20.450754056168446
0002d0 45 56 a9 25 b2 5c 19 c0 e4 52 8d 2a ff 29 03 40
       -6.3405233273129555 2.395506222188816
0002e0 94 ae c6 10 41 74 27 40 ff ba d1 ab 9b f3 1a c0
       11.727058910611312 -6.737898525882655
0002f0 9b b2 d2 fd ab 01 16 40 fe 11 72 38 1f 6c 32 40
       5.501632657990423 18.422351386880102
000300 5c 76 12 51 3a 13 d6 3f f1 63 e9 cf 3f ba 08 40
       0.34492357175063204 3.0909420245266053
000310 5e 6f 45 5f 0a 2d 32 40 36 c7 f8 1b 64 2f 17 c0
       18.17593951649848 -5.79628032403871
000320 a0 34 7a 62 29 d1 18 40 0b b8 bc c5 20 24 39 40
       6.204259432514988 25.141125067304568
000330 6e d1 81 54 b7 2b 02 c0 84 ae ee 0b 52 1c bc 3f
       -2.2713457681767784 0.1098071364528384
000340 4f 31 32 04 c3 4c 2a 40 cc b8 56 63 bc 12 09 c0
       13.149925356986072 -3.1341483841743862
000350 cd e8 bc 65 ee 46 d6 3f 0a bd 71 8d 98 f0 38 40
       0.3480792993101545 24.939827766674206
000360 2c 80 15 9c 08 41 d5 bf 5d 51 1f 05 c6 93 d7 3f
       -0.33209433786942344 0.36839437961795857
000370 97 0e c3 54 a8 28 32 40 fa 71 aa a9 da ff 1e c0
       18.158818528767906 -7.749857569721366
000380 a6 10 43 66 12 68 f5 bf 8a 59 00 42 84 5e 29 40
       -1.3379081720932304 12.68460279707212
000390 a1 9b 82 6b 95 ff 10 c0 32 a0 ba 03 79 75 d3 bf
       -4.249593429419208 -0.3040449654022296
0003a0 3e c0 75 e4 6a 1b 29 40 bf 50 3f e1 4d a2 fc bf
       12.553549899457831 -1.789625053284041
0003b0 83 b8 78 25 23 36 04 40 48 d8 1c 3f 58 63 2e 40
       2.5264342238870667 15.194032642623043
0003c0 50 aa b9 b0 96 f5 14 c0 f0 ae 1c b5 13 55 04 40
       -5.239832650501356 2.541541495263907
0003d0 00 90 62 45 2b 1f 2b 40 7f ae 81 d9 09 a7 16 c0
       13.560877006799274 -5.663123510875834
0003e0 b4 cf fa ab 35 12 f5 3f 49 1a b8 3b eb 28 28 40
       1.316945716663196 12.079919687484237
0003f0 94 df 14 da db 7f ed 3f 1a 03 f1 3d e3 21 ff bf
       0.9218577632336626 -1.9457733554447203
000400 fe 31 15 7b e5 e5 2d 40 2b 85 11 e7 87 97 1c 40
       14.949016424500766 7.147979364818904
000410 e5 c3 23 41 b8 81 fb 3f 7c 3f 86 5e 1a da 38 40
       1.7191698593635405 24.85196486260928
000420 c9 ae 53 2c 35 e8 1f c0 00 82 85 57 80 4d f5 3f
       -7.976765339477148 1.3314212244805503
000430 81 f1 c6 35 50 6d 3c 40 5b 61 bc cf 35 26 11 c0
       28.427005158491287 -4.287314649460622
000440 3c 3f 39 2a ef dc 0c 40 d0 11 ea 31 9d e0 2e 40
       3.6078780459137345 15.438699302504489
000450 fe f1 46 fc d3 84 11 c0 09 52 8d 2f 35 ec 12 40
       -4.379714910345227 4.730671637535587
000460 0f fe 50 ac 0e 17 3b 40 69 63 69 6c cf 09 0d c0
       27.090067643903293 -3.6297901601469005
000470 73 e2 08 95 09 8c 03 40 6d 75 c4 81 6b a1 2c 40
       2.443377651532779 14.315273337585234
000480 1f 70 67 73 2b 5f e7 3f e9 af 9f c8 3a 6c 01 c0
       0.7303673986421052 -2.17784649598433
000490 3b 6d c2 dd 7f 92 36 40 03 bd f1 f6 b8 1a 22 c0
       22.572263584105922 -9.052192418107103
0004a0 1a cd 7e c7 e8 45 c6 3f 1a be 18 52 fb 4b 36 40
       0.17400846234304695 22.29680359939639
0004b0 61 cc a8 45 41 26 ed 3f 68 14 cc ee 5c 95 13 40
       0.9109197960409682 4.895862323003804
0004c0 3d 66 7a 2a 23 d1 2f 40 bf c6 49 20 c3 5e 18 c0
       15.908471419755296 -6.092541222098304
0004d0 82 13 73 f5 a0 65 11 40 2f ef 6b ee 5c 68 27 40
       4.349246821545309 11.70383400981481
0004e0 5c 36 47 63 2a cf e7 bf d5 46 e1 37 4c 12 18 40
       -0.7440387667681523 6.017868874668882
0004f0 6f 7d a6 d1 30 d7 30 40 87 9d de 51 09 2f f5 bf
       16.840588668009726 -1.3239834974318414
000500 99 4e 08 6d 80 4e ff 3f 46 8e 00 37 64 dc 35 40
       1.9566654452400256 21.86090415729111
000510 79 c1 df 36 dd 7a 0b c0 3a 39 61 f9 91 b6 12 c0
       -3.4349922453913533 -4.678291222151808
000520 b5 72 01 e0 66 0e 36 40 7f d7 bf 37 42 14 0d 40
       22.05625724826196 3.634891925375029
000530 db 08 06 70 c0 b3 d8 3f d0 c8 2d 53 38 aa 39 40
       0.3859711736660196 25.664921950033033
000540 28 65 b1 df bd db ff bf f8 5a 4b 57 12 24 0c 40
       -1.9911478746419764 3.517613107669032
000550 4e df 66 f9 76 5a 37 40 00 f4 3c 10 d7 34 01 40
       23.353377902617744 2.1508008259393137
000560 90 59 3e 55 54 3e 26 40 12 04 d2 4e 7a 99 38 40
       11.121737159596506 24.599522520326055
000570 05 02 47 25 77 cd 26 c0 81 de 5d 6a d7 1d d1 bf
       -11.401299633901553 -0.26744637858744374
000580 ab 00 08 c8 99 22 35 40 67 d1 48 b7 19 fa f7 bf
       21.13515901751877 -1.4985596808956758
000590 a9 2c d1 01 0b 7d e6 3f 22 6f fd bb 89 7e 27 40
       0.7027640376558298 11.747144579588682
0005a0 73 ff 47 a7 9b 32 21 c0 3d 13 1c 2e a6 29 f3 3f
       -8.598843791521835 1.1976682473334244
0005b0 c1 ad 09 83 a4 46 30 40 54 f7 14 e5 f8 f0 e1 3f
       16.27594775186822 0.5606655573135222
0005c0 41 71 5e f0 ee a7 11 40 cc b4 98 66 66 e3 35 40
       4.413997417225176 21.888281261712834
0005d0 96 d2 eb 3d 10 d5 06 40 98 34 e9 84 f6 a4 14 40
       2.8540348851768824 5.161096646054965
0005e0 53 0f 47 c9 ca d5 2f 40 22 28 27 2a 9e 75 23 c0
       15.917562761234569 -9.729722325591926
0005f0 66 1d 94 b3 8e c6 0b 40 fe 59 bf f9 5d 7b 2d 40
       3.4719518689704953 14.740951351745931
000600 d5 f0 25 76 0e 55 2a c0 ca 03 6e 6c 05 53 00 40
       -13.166125957614364 2.0405376883577206
000610 db 28 d2 0b d0 21 36 40 ce 40 09 76 f3 d9 15 c0
       22.132080782707686 -5.462842792811172
000620 a0 28 f7 e9 77 c0 02 40 60 a5 e8 30 14 a0 38 40
       2.3439787176658484 24.625308090971316
000630 7e ec a8 ff 98 64 1b c0 3c 80 58 ca c9 af 11 40
       -6.848239893613139 4.421668206836383
000640 d0 bf f7 3d 80 34 33 40 0e 68 94 00 41 74 c0 bf
       19.205081818566953 -0.12854778793627059
000650 33 14 53 fa c9 50 03 40 de 35 4c 59 35 2f 29 40
       2.414447742138259 12.59220389418891
000660 63 66 9e 07 44 2f 29 c0 1a 60 eb 83 5c 1b 0a 40
       -12.592315900884563 3.2633600527006026
000670 dd c0 8c e1 8c b4 33 40 ab b4 17 ff 68 aa 09 c0
       19.705274674285523 -3.2082080773457924
000680 0e 7f 7d 11 01 9e 06 40 b3 99 24 d1 35 99 32 40
       2.827150475160926 18.598477431712762
000690 c8 17 55 61 58 e6 eb bf 5a e8 37 fc d8 7f d1 3f
       -0.8718683148406337 0.2734281981535155
0006a0 9e 97 5e 4c cc 25 31 40 ea 5d 58 f2 4e c8 24 c0
       17.14764859494573 -10.39122731522271
0006b0 db 3a a4 b4 03 57 06 40 02 a5 da 53 5e 58 32 40
       2.792487536680125 18.345189324264545
0006c0 b9 9e e2 4a 08 e3 2a c0 cb 70 d1 c0 d7 1d d8 3f
       -13.443422641910148 0.3768214591016316
0006d0 78 8d d0 f9 96 18 38 40 84 f9 54 2f 98 3a 28 c0
       24.096053708473363 -12.114442328570256
0006e0 c0 e5 1c 8c 42 6d d5 3f 58 71 a1 be 6b c1 31 40
       0.3347936981477595 17.755550302901014
0006f0 64 4b 4f 8e 28 ce e3 3f 7f 32 64 9b 25 47 20 40
       0.6189158229338827 8.138958793622121
000700 d1 2f 80 65 c2 2e 3b 40 25 5e 49 01 fc 8e 07 40
       27.18265375499306 2.944816598941332
000710 c4 dd d4 af 01 f3 1d 40 8d 2e 2c f9 6d b5 37 40
       7.487311122290922 23.708709309851248
000720 62 a6 2c dd ba 5b 09 c0 fd 07 d8 10 a1 86 07 40
       -3.169790008473499 2.940736896126508
000730 43 89 90 8d 06 45 2a 40 d7 ba 33 91 c6 1d 1c c0
       13.13481562032087 -7.02907778623804
000740 a7 80 e5 36 9d 28 06 40 7b 24 ea 62 73 6d 2b 40
       2.769831112746107 13.713770953256462
000750 12 5b cf 07 c7 2c 1e c0 05 6f 4e 4f 98 4d 07 40
       -7.5437279911336805 2.912888164120775
000760 c0 2f 3e 40 b4 1b 34 40
       20.108219161207444
